best_model_Adam_lr0.01_loss_cross entropy_features7.pth (torch, 1952 bytes, 2 tensors)

linear.weight f4 [2, 7]
0	0xbeb4daa2	-0.35323054
1	0xbf8b4840	-1.0881424
2	0x3d6d94bc	0.058003172
3	0x3d9e5faa	0.0773309
4	0xbf06e3eb	-0.52691525
5	0xbdf5adb0	-0.11996019
6	0xbdd4ed91	-0.10396875
7	0x3e455bb8	0.19273269
8	0x3f105266	0.5637573
9	0x3da93071	0.082611926
10	0x3d9db5f4	0.077007204
11	0x3e83accc	0.2571777
12	0x3e6a7305	0.22895439
13	0x3d70dc32	0.058803745

linear.bias f4 [2]
0	0x3e8d002e	0.275392
1	0xbed88f0b	-0.42296633
